…
wandb: Run data is saved locally in /projectnb/dl4ds/students/alavaee/efficient-cv/wandb/run-20250407_115355-onig4v9o
wandb: Run `wandb offline` to turn off syncing.
wandb: Syncing run linear_probe_titok_s128_imagenet
wandb: ⭐️ View project at https://wandb.ai/artificial-intelligence-research/eff-cv
wandb: 🚀 View run at https://wandb.ai/artificial-intelligence-research/eff-cv/runs/onig4v9o
[11:53:57.095008] Creating WebDataset loaders: /projectnb/dl4ds/materials/datasets/imagenet/imagenet-train-{000000..000319}.tar and /projectnb/dl4ds/materials/datasets/imagenet/imagenet-val-{000000..000049}.tar
[11:53:58.133914] Model = TiTokEncoder(
  (patch_embed): Conv2d(3, 512, kernel_size=(16, 16), stride=(16, 16))
  (ln_pre): LayerNorm((512,), eps=1e-05, elementwise_affine=True)
  (transformer): ModuleList(
    (0-7): 8 x ResidualAttentionBlock(
      (ln_1): LayerNorm((512,), eps=1e-05, elementwise_affine=True)
      (attn): MultiheadAttention(
        (out_proj): NonDynamicallyQuantizableLinear(in_features=512, out_features=512, bias=True)
      )
      (ln_2): LayerNorm((512,), eps=1e-05, elementwise_affine=True)
      (mlp): Sequential(
        (c_fc): Linear(in_features=512, out_features=2048, bias=True)
        (gelu): GELU(approximate='none')
        (c_proj): Linear(in_features=2048, out_features=512, bias=True)
      )
    )
  )
  (ln_post): LayerNorm((512,), eps=1e-05, elementwise_affine=True)
  (conv_out): Conv2d(512, 12, kernel_size=(1, 1), stride=(1, 1))
  (fc_norm): LayerNorm((512,), eps=1e-06, elementwise_affine=True)
  (head): Sequential(
    (0): BatchNorm1d(512, eps=1e-06, momentum=0.1, affine=False, track_running_stats=True)
    (1): Linear(in_features=512, out_features=1000, bias=True)
  )
)
[11:53:58.134492] number of params (M): 0.51
[11:53:58.134818] base lr: 1.00e-01
[11:53:58.134990] actual lr: 3.20e+00
[11:53:58.135144] accumulate grad iterations: 1
[11:53:58.135283] effective batch size: 8192
[11:53:58.140693] LARS (
Parameter Group 0
    lr: 3.2
    momentum: 0.9
    trust_coefficient: 0.001
    weight_decay: 0
)
[11:53:58.141074] criterion = CrossEntropyLoss()
…
